work/ADNI/Models/ehr_only_mlp/model.pt (torch, 620487 bytes, 6 tensors)

net.0.weight f4 [512, 43]
0.122383825 0.12973352 -0.031407494 0.14661272 -0.033968218 0.042427436 -0.09271559 0.09857878
0.15211783 -0.11915809 0.13255118 0.028541526 0.1126673 0.020652968 0.073533 -0.021531427
0.117558986 0.022540648 -0.07119242 0.038871627 -0.07026168 -0.017883943 -0.061938565 0.10116313
-0.12037782 -0.07030342 -0.043061744 -0.09169319 0.014393291 -0.15061966 0.13772285 -0.1295427
0.117733076 0.025378684 -0.049516976 0.094236486 0.02376702 0.12321326 0.014568926 -0.03148586
0.045960587 -0.01618666 0.07098536 0.13463299 0.08840384 -0.071207784 0.082586646 0.031717516
0.08210623 -0.09153228 -0.1547881 -0.047393113 -0.13400021 0.12513101 0.04392437 0.063166976
0.048229378 -0.0026528612 0.11934664 -0.10835231 0.009601878 -0.10408641 0.04702324 -0.05251781
0.046728045 -0.03177178 0.12648107 -0.0903862 -0.09094984 -0.09095533 0.13716374 0.05082032
0.14674187 -0.12585345 -0.15125969 -0.11930936 -0.10258412 0.061768044 0.054606058 0.12671478
-0.078754134 -0.120639026 0.10405794 -0.062237684 0.10714471 -0.05446076 0.09267992 -0.12116154
-0.074526496 0.049661897 0.031143937 -0.04211118 0.08685176 0.11078336 -0.10730675 -0.08775677
0.13963714 -0.051457975 -0.054063242 -0.1475568 -0.08733139 0.038094703 -0.020128772 -0.11069658
0.0035771122 -0.10416895 -0.12937927 -0.08397526 -0.1334686 -0.09710164 0.15243892 0.028803162
0.046993915 -0.14223303 -0.10015707 -0.05076004 0.023846373 -0.13418674 -0.06570752 -0.09129611
0.00042261294 -0.05674521 -0.010567505 -0.10333756 -0.11396572 -0.063051224 -0.06549174 -0.1236726
0.10810822 -0.019177862 0.12569655 0.046015527 -0.12843445 0.101156175 -0.036399167 -0.047459994
-0.12906884 -0.15628648 0.061939593 -0.03331238 0.059371218 -0.12515001 0.11321938 -0.11194215
-0.026332438 0.03185233 0.07872766 0.12311368 0.13891998 -0.120919496 0.038378898 -0.06559359
-0.016711527 -0.11414367 0.13890465 -0.11192641 0.081503056 0.053594038 0.049555317 -0.082447775
0.1386138 0.033511624 0.019617425 -0.1343901 0.06401715 -0.022877928 -0.0698633 0.1474502
0.012362644 -0.07909446 -0.06917491 0.014414104 0.08662524 -0.04105739 -0.09049487 -0.05421003
-0.11373112 0.062592104 0.12232485 -0.13258037 0.043268524 0.093691 0.02765247 -0.0543085
0.07959543 0.08014001 0.05702337 -0.026797263 -0.040381815 0.016314438 -0.026939498 -0.045444734
0.09747814 0.1310572 -0.015096955 -0.03414395 0.0022253033 -0.009105421 0.036662377 0.042735226
-0.13850786 -0.05627773 0.12842354 0.05940658 -0.007584909 -0.091942266 -0.093299404 -0.13660316
-0.049708806 0.051499404 0.09481936 0.0748232 -0.13079843 -0.08823386 -0.013290381 0.1549427
0.012303966 -0.04619075 0.055729106 -0.065668024 -0.10414583 0.10828016 -0.08459728 -0.027233222
-0.16639383 0.102062814 0.1155382 0.05557783 -0.10633332 -0.15050693 -0.123856135 0.11371822
0.07321544 0.12832823 0.07988941 0.038596194 -0.0014933705 -0.11597609 -0.13065654 -0.14263932
0.062427115 -0.07487192 -0.030690731 -0.08776373 -0.027788833 -0.10733382 -0.09964496 0.050585426
-0.045322023 0.09414396 -0.048922878 -0.11186796 -0.026906684 -0.06262229 -0.040738672 -0.13467304
00000000: 5fa4 fa3d ddd8 043e 25a5 00bd a521 163e
00000010: 4222 0bbd 64c8 2d3d ace1 bdbd ace3 c93d
00000020: c7c4 1b3e 2809 f4bd 7fbb 073e ebcf e93c
00000030: 1dbe e63d 6a30 a93c 7898 963d ad62 b0bc
00000040: c4c2 f03d 2aa7 b83c 55cd 91bd db37 1f3d
00000050: 5be5 8fbd 5981 92bc 4bb3 7dbd 9d2e cf3d
00000060: a688 f6bd 3dfb 8fbd 8361 30bd a4c9 bbbd
00000070: d7d1 6b3c 0a3c 1abe 3807 0d3e d7a6 04be
00000080: 0a1e f13d f5e6 cf3c 50d2 4abd 0fff c03d
00000090: 0eb3 c23c 3c57 fc3d 81b2 6e3c 51f7 00bd
000000a0: 2b41 3c3d e399 84bc c660 913d 3bdd 093e
000000b0: 130d b53d 63d5 91bd 3023 a93d 3aea 013d
000000c0: 5027 a83d 4775 bbbd c680 1ebe 481f 42bd
000000d0: 5a37 09be 5822 003e 0aea 333d b05d 813d
000000e0: 2b8c 453d a0db 2dbb 036c f43d d1e7 ddbd
000000f0: 3251 1d3c 412b d5bd 719b 403d ea1c 57bd
00000100: e865 3f3d 2023 02bd 4184 013e 661c b9bd
00000110: e943 babd ca46 babd a774 0c3e f828 503d
00000120: 8043 163e badf 00be d2e3 1abe 7758 f4bd
00000130: a017 d2bd 7d00 7d3d 9aaa 5f3d 85c1 013e
00000140: d949 a1bd 9811 f7bd 541c d53d f1ec 7ebd
00000150: b06e db3d 3f12 5fbd f8ce bd3d 8b23 f8bd
00000160: 59a1 98bd 466a 4b3d 9221 ff3c c67c 2cbd
00000170: 56df b13d 63e2 e23d a4c3 dbbd d2b9 b3bd
00000180: 0afd 0e3e 99c5 52bd 6b71 5dbd 2119 17be
00000190: cdda b2bd 3109 1c3d 18e5 a4bc e3b4 e2bd
000001a0: fc6d 6a3b 8856 d5bd 007c 04be 39fb abbd
000001b0: feab 08be 3add c6bd f318 1c3e 9cf4 eb3c
000001c0: b17c 403d 89a5 11be 261f cdbd c2e9 4fbd
000001d0: 7859 c33c 4068 09be aa91 86bd 74f9 babd
000001e0: 2692 dd39 aa6d 68bd 5423 2dbc a5a2 d3bd
000001f0: dc66 e9bd 0021 81bd 8920 86bd 0f48 fdbd
00000200: d867 dd3d e41a 9dbc 99b6 003e c77a 3c3d
00000210: 5284 03be f82a cf3d 4b17 15bd 6965 42bd
00000220: 9f2a 04be 9009 20be 5fb4 7d3d 9072 08bd
00000230: 3c2f 733d 5327 00be 90df e73d ed41 e5bd
00000240: 20b7 d7bc 9777 023d f83b a13d 0623 fc3d
00000250: 0a41 0e3e a4a4 f7bd 3133 1d3d ef55 86bd
00000260: 9de6 88bc 28c4 e9bd 053d 0e3e ac39 e5bd
00000270: 13eb a63d 6c85 5b3d 84fa 4a3d 61da a8bd
00000280: c7f0 0d3e 7c43 093d b9b4 a03c 8f9d 09be
00000290: 6c1b 833d 7e6a bbbc 7d14 8fbd 2ffd 163e
000002a0: b08c 4a3c 47fc a1bd 93ab 8dbd 2229 6c3c
000002b0: 9368 b13d cb2b 28bd 6055 b9bd 560b 5ebd
000002c0: ddeb e8bd 4a30 803d 7385 fa3d 26c3 07be
000002d0: 563a 313d 11e1 bf3d 6f87 e23c 9772 5ebd
000002e0: ee02 a33d 7220 a43d 5691 693d ef85 dbbc
000002f0: 6767 25bd dba5 853c 39b0 dcbc 4224 3abd
00000300: 9ea2 c73d dc33 063e 3859 77bc 87da 0bbd
00000310: 65d6 113b e72e 15bc 4a2b 163d 220b 2f3d
00000320: 01d5 0dbe 7a83 66bd 7681 033e 5054 733d
00000330: d48a f8bb 3a4c bcbd c213 bfbd b3e1 0bbe
00000340: 769b 4bbd 0af1 523d a730 c23d e83c 993d
00000350: 06f0 05be f4b3 b4bd e6bf 59bc 4da9 1e3e
00000360: 9396 493c 8332 3dbd 3444 643d f57c 86bd
00000370: 694a d5bd fdc1 dd3d 5741 adbd 3518 dfbc
00000380: 2563 2abe 4f06 d13d 4b9f ec3d 94a5 633d
00000390: 49c5 d9bd 7d1e 1abe 49a8 fdbd 19e5 e83d
000003a0: faf1 953d 7a68 033e 0f9d a33d 0b17 1e3d
000003b0: 33bd c3ba df84 edbd d4ca 05be 0b10 12be
000003c0: 93b3 7f3d 7356 99bd 216b fbbc 78bd b3bd
000003d0: 68a5 e3bc d5d1 dbbd a812 ccbd aa32 4f3d
000003e0: 96a3 39bd 8cce c03d 5b63 48bd 071b e5bd
000003f0: 686b dcbc 1d40 80bd 98dd 26bd bbe7 09be

net.0.bias f4 [512]
-0.11404894 -0.02400651 -0.038769692 0.034114137 -0.07375592 0.0515631 0.1487765 0.031792384
0.11086649 -0.085839 0.1237818 -0.018420637 0.16195971 -0.044069372 0.030683393 0.039148707
0.054282866 0.023155898 -0.018579263 -0.029790627 0.11452772 0.14620757 0.15920602 -0.07218253
0.13381442 0.13347687 0.089980856 -0.0057904907 -0.08355974 -0.03506289 -0.12865424 0.09654656
0.09777108 0.060965687 -0.14279889 0.06350855 -0.06706043 -0.05714988 -0.118114315 0.13990581
0.08659992 0.14287601 0.15222801 -0.06997465 0.12275298 0.12535408 0.047973838 -0.13153836
-0.007193156 -0.13727333 -0.0046675866 0.1419154 0.016593514 -0.11256866 0.15305863 -0.025397751
0.09715332 -0.016195545 -0.08751629 0.06539667 0.04371287 0.06264724 -0.011095651 0.13905421
-0.11801862 -0.1186765 -0.113044396 -0.03908568 0.053597458 -0.054553643 -0.032039836 -0.06263764
-0.041702665 -0.13551205 0.03066941 0.05964465 -0.045962837 0.028333277 0.13599917 0.119204484
-0.13345008 -0.11880982 0.07379558 0.0065768575 0.14275227 0.11931656 -0.09209371 -0.12947002
0.02870501 0.0466382 -0.026432827 0.109086655 0.15609625 -0.0041865464 0.06378499 -0.13697797
-0.0032118724 -0.10265073 0.13347308 0.065007724 0.091469586 -0.044648983 0.06602918 0.055675056
-0.0509152 -0.03772182 0.07558181 0.04855561 0.009507542 0.013934186 -0.09842385 -0.006846583
0.02521814 0.08072979 -0.035574056 0.06477842 0.031301644 0.15326951 0.06634102 -0.14718978
-0.03843283 -0.0024970642 -0.06227858 -0.040531535 0.017561829 0.007851584 -0.035454877 -0.052261714
-0.04882218 0.06663169 0.055166148 0.037492827 0.11950751 0.023765014 0.14854124 -0.013785248
0.015778285 -0.06141411 -0.1008462 -0.046970654 0.044542525 0.022936411 0.081361346 0.06884337
-0.13378806 0.13847165 -0.03306584 -0.10408464 0.075678915 0.047322158 -0.0768315 0.0055841613
0.13653801 0.058080383 -0.031699214 -0.038409796 0.048114076 0.15689783 -0.035391267 0.13450268
-0.044376917 0.117516585 0.031337466 -0.049697567 0.13809381 0.12637429 -0.0207182 -0.13070059
-0.06888435 0.0037273916 -0.12364428 -0.09978846 0.002996745 -0.029833427 0.017618759 -0.071292646
-0.062378805 0.055617835 0.030219506 0.11583952 -0.067480065 -0.051168334 -0.0671513 -0.09294459
0.09130033 -0.0369313 0.15171158 0.09499866 -0.06386395 -0.034832 0.08194535 -0.09491271
0.14733255 0.030961975 0.051690664 0.14060983 -0.12848622 -0.036222164 -0.07738961 -0.08373371
0.103118196 0.111076005 0.116737485 0.15335187 -0.07316069 0.019722704 0.048048623 -0.03706382
0.094960876 0.15989184 -0.14979032 -0.017242584 0.10698824 -0.09526871 -0.013764511 0.10330202
0.048122987 -0.07006342 -0.018590724 0.010669193 0.1608212 -0.09288966 -0.0046927743 -0.026901104
0.1593615 0.12993258 -0.008748475 -0.056055386 0.16918479 -0.0009876974 -0.047683705 0.13099043
0.066068426 0.033174694 0.15372199 -0.059858896 0.12878114 0.08326614 -0.08494946 0.14574867
0.073800154 -0.09985704 0.14667504 -0.11359588 0.028662626 0.07803372 0.089131586 -0.1258899
0.14208172 0.13632654 0.10191031 0.06380521 -0.08842817 0.1257321 0.0269365 -0.012971715
00000000: 7e92 e9bd 4da9 c4bc f8cc 1ebd 44bb 0b3d
00000010: 580d 97bd d433 533d de58 183e bb38 023d
00000020: f80d e33d 5ccc afbd 5081 fd3d e0e6 96bc
00000030: c4d8 253e 1682 34bd bd5b fb3c 655a 203d
00000040: b657 5e3d 70b1 bd3c 8a33 98bc 790b f4bc
00000050: 828d ea3d 70b7 153e e706 233e 6fd4 93bd
00000060: a606 093e 29ae 083e e247 b83d 28be bdbb
00000070: 5e21 abbd 1b9e 0fbd f0bd 03be 34ba c53d
00000080: 343c c83d 28b7 793d df39 12be c510 823d
00000090: fb56 89bd fe15 6abd ebe5 f1bd 7843 0f3e
000000a0: 4d5b b13d 174e 123e a9e1 1b3e df4e 8fbd
000000b0: ea65 fb3d d25c 003e 3780 443d feb1 06be
000000c0: 91b4 ebbb 6191 0cbe 8ef2 98bb 4552 113e
000000d0: 1fef 873c 668a e6bd 67bb 1c3e f20e d0bc
000000e0: 52f8 c63d 85ac 84bc be3b b3bd b0ee 853d
000000f0: 440c 333d 324d 803d 89ca 35bc 3a64 0e3e
00000100: bfb3 f1bd aa0c f3bd d283 e7bd 4e18 20bd
00000110: 0289 5b3d a473 5fbd 343c 03bd 2a48 80bd
00000120: 6ad0 2abd acc3 0abe 6a3e fb3c f34d 743d
00000130: 8743 3cbd 301b e83c 5e43 0b3e 7b21 f43d
00000140: 23a7 08be 9052 f3bd 2322 973d ae82 d73b
00000150: a72d 123e 3e5c f43d a19b bcbd ca93 04be
00000160: c526 eb3c b207 3f3d a889 d8bc d368 df3d
00000170: b2d7 1f3e 4c2f 89bb b4a1 823d f443 0cbe
00000180: 477e 52bb 8c3a d2bd 2bad 083e c522 853d
00000190: 6854 bb3d dae1 36bd 4f3a 873d 870b 643d
000001a0: 758c 50bd 3282 1abd a3ca 9a3d 3fe2 463d
000001b0: 85c5 1b3c 364c 643c 7292 c9bd 4d59 e0bb
000001c0: 4696 ce3c a955 a53d 1ab6 11bd 8caa 843d
000001d0: 2736 003d aff2 1c3e cddd 873d ebb8 16be
000001e0: be6b 1dbd c9a5 23bb d317 7fbd 6504 26bd
000001f0: d3dd 8f3c eea3 003c 2239 11bd 6110 56bd
00000200: c4f9 47bd 3276 883d e6f5 613d 1492 193d
00000210: 5ac0 f43d d9ae c23c 321b 183e 85db 61bc
00000220: 7641 813c 5d8d 7bbd 7488 cebd 4d64 40bd
00000230: 3972 363d 24e5 bb3c c7a0 a63d c1fd 8c3d
00000240: bdff 08be 83cb 0d3e 0c70 07bd 542a d5bd
00000250: 8cfd 9a3d e1d4 413d d559 9dbd 57fb b63b
00000260: 9fd0 0b3e b2e5 6d3d 09d7 01bd 9753 1dbd
00000270: 4413 453d d3a9 203e 6ff6 10bd 12bb 093e
00000280: 92c4 35bd 89ac f03d b75b 003d ad8f 4bbd
00000290: 7768 0d3e 4368 013e 37b9 a9bc 60d6 05be
000002a0: 3d13 8dbd 4147 743b 3639 fdbd e45d ccbd
000002b0: 0a65 443b 3b65 f4bc 3755 903c e101 92bd
000002c0: eb80 7fbd 87cf 633d e68e f73c 453d ed3d
000002d0: fd32 8abd e395 51bd 9f86 89bd bc59 bebd
000002e0: abfb ba3d 4645 17bd 485a 1b3e a88e c23d
000002f0: 1acb 82bd 00ac 0ebd f7d2 a73d 9861 c2bd
00000300: 58de 163e f8a3 fd3c 97b9 533d 06fc 0f3e
00000310: e491 03be b15d 14bd 727e 9ebd 947c abbd
00000320: a22f d33d d17b e33d 1014 ef3d 4608 1d3e
00000330: 46d5 95bd 8291 a13c a2ce 443d 3bd0 17bd
00000340: d97a c23d b0ba 233e a262 19be 5240 8dbc
00000350: a61c db3d 3e1c c3bd 8b84 61bc 0290 d33d
00000360: 9c1c 453d 697d 8fbd 934b 98bc d7cd 2e3c
00000370: 50ae 243e ef3c bebd d8c5 99bb b45f dcbc
00000380: a92f 233e 0c0d 053e c455 0fbc 559a 65bd
00000390: c73e 2d3e a075 81ba fd4f 43bd 5b22 063e
000003a0: e24e 873d 30e2 073d 4c69 1d3e 9a2e 75bd
000003b0: 34df 033e 7087 aa3d fcf9 adbd 243f 153e
000003c0: 8924 973d d981 ccbd fb31 163e f5a4 e8bd
000003d0: e2cd ea3c 25d0 9f3d 9f8a b63d 48e9 00be
000003e0: df7d 113e 2f99 0b3e 5ab6 d03d 4eac 823d
000003f0: d419 b5bd eabf 003e efa9 dc3c 5187 54bc

net.3.weight f4 [256, 512]
-0.035816725 -0.028198961 -0.0307289 -0.017570501 -0.00022413676 0.04970431 -0.004573287 0.02668498
0.019273719 0.02684662 0.020754928 0.008529766 -0.0020481574 -0.0024718905 -0.029159985 -0.021185728
-0.03018559 -0.047978576 -0.04575351 0.034387328 0.012559439 0.02387464 0.04017798 0.0332341
-0.039043278 -0.014881277 0.007134175 0.015529081 -0.050401453 0.049350955 0.041540176 0.014487755
-0.021292165 0.026611058 0.02012854 0.022420213 -0.015183515 0.010942355 -0.04106522 -0.0087764785
-0.014334452 0.0460768 -0.042296413 0.028188616 0.014736749 0.0033370752 0.02008989 -0.04223126
0.01805078 0.022117019 -0.038019914 0.034269415 0.0063494532 0.018403113 -0.0029961558 0.019370185
0.022285733 -0.026610237 -0.034429453 -0.00059846445 0.03511363 -0.04609944 0.04136362 -0.00073679746
-0.033029635 0.016736012 0.023250591 -0.0323225 -0.046092227 -0.03780365 0.027555328 -0.033775233
0.017798528 0.031638075 0.0029431474 0.05370841 -0.010554999 -0.012856931 0.016494002 -0.021507053
0.043503784 -0.01283959 -0.027468279 0.0075084013 -0.017601673 0.04833487 0.00040645569 0.015544546
-0.0006643367 -0.019225927 0.0013928096 -0.013997389 0.005910342 0.011050125 -0.026306817 -0.021052811
-0.04498923 0.04628491 0.011758311 0.010120725 0.046100236 0.017578373 0.002995541 -0.032724526
-0.018424304 -0.03230696 0.006114294 0.00037110032 -0.0347269 0.017969178 0.011953529 0.0066070636
-0.011061783 -0.009425297 -0.031833794 0.0035720859 -0.016603356 -0.013366902 0.045815896 0.03584109
0.05102872 0.029986003 -0.021944463 0.032236777 -0.008987047 0.037285887 0.00036397678 -0.021130662
-0.03390077 0.015508901 -0.02912998 0.005481897 -0.0042259283 -0.03559785 0.045250278 -0.016458614
0.04146472 -0.014626041 0.02098147 0.04565143 -0.017645286 0.029894881 0.045294788 -0.0083407685
-0.0544993 -0.00014094547 0.021783836 -0.039190315 0.050469384 -0.013609419 -0.006055018 0.026930202
-0.03228997 0.017312352 0.004132299 0.017651847 -0.026170671 -0.029286558 -0.03090662 -0.047111396
0.045848932 -0.0061850958 -0.0031900818 -0.005911967 -0.028588112 -0.035017762 -0.041832343 0.034574524
-0.018952414 0.015599147 0.025972156 0.011829196 0.0023809457 0.0023483199 -0.023153078 0.04697082
-0.033989493 0.0025837421 0.04126145 0.0019282486 0.026127122 0.0471404 -0.022301648 0.017061505
-0.0158369 -0.020342281 -0.027849417 0.038008697 -0.007015914 0.048569866 0.054059178 0.011524938
0.044677 0.0011311383 0.03012823 -0.0011063975 -0.018471861 -0.03712552 -0.02564834 0.0029482278
0.012819129 0.030039286 0.00080578733 0.0031725394 0.004978185 0.028345138 -0.010440235 0.054900285
-0.0013984074 0.0007324371 0.056550287 -0.036810894 0.040213425 0.049501624 0.030773815 0.027799796
-0.0025741223 -0.020301435 0.030112106 0.02030786 0.033544064 0.027555121 -0.02022207 0.03358103
-0.005142668 -0.029509932 -0.009448982 -0.011403972 -0.0219386 -0.009290351 -0.036531903 -0.03807587
0.030328546 -0.023218717 0.0061687017 -0.0007849262 0.029515233 0.010984755 -0.0037124313 0.016001375
-0.020922419 0.01218549 -0.029447436 -0.016840158 -0.018113567 -0.021335652 -0.007360138 0.0039138333
0.004802749 -0.02118202 -0.014508397 -0.02443493 0.034275476 -0.024183474 -0.006580873 0.02637359
00000000: 8fb4 12bd 8201 e7bc 2dbb fbbc 03f0 8fbc
00000010: 4106 6bb9 bf96 4b3d 83db 95bb 769a da3c
00000020: ebe3 9d3c 71ed db3c 3d06 aa3c 6fc0 0b3c
00000030: 613a 06bb 71ff 21bb ece0 eebc b18d adbc
00000040: c547 f7bc 2f85 44bd 0868 3bbd bad9 0c3d
00000050: 1bc6 4d3c c094 c33c aa91 243d 7b20 083d
00000060: d8eb 1fbd 9ad0 73bc ccc5 e93b b06d 7e3c
00000070: c171 4ebd 3a24 4a3d 0826 2a3d 0c5e 6d3c
00000080: e86c aebc 6fff d93c 9ce4 a43c 98aa b73c
00000090: 47c4 78bc 9047 333c 0134 28bd 38cb 0fbc
000000a0: 0ddb 6abc 07bb 3c3d 013f 2dbd d0eb e63c
000000b0: 6872 713c d5b2 5a3b 8e93 a43c b0fa 2cbd
000000c0: 3bdf 933c c02e b53c c5ba 1bbd 165e 0c3d
000000d0: 130f d03b 20c2 963c 275b 44bb 39ae 9e3c
000000e0: 9290 b63c b6fd d9bc e605 0dbd 45e2 1cba
000000f0: 4fd3 0f3d c4d2 3cbd e66c 293d a425 41ba
00000100: 154a 07bd f619 893c 0678 be3c 9964 04bd
00000110: 34cb 3cbd 00d8 1abd b6bb e13c e657 0abd
00000120: 38ce 913c ed96 013d d2e1 403b 5afd 5b3d
00000130: e0ee 2cbc e1a5 52bc 6e1e 873c 8f2f b0bc
00000140: 0631 323d 255d 52bc 2805 e1bc 0909 f63b
00000150: 6231 90bc c9fa 453d 8f19 d539 8dae 7e3c
00000160: e226 2eba b17f 9dbc ef8e b63a 4e55 65bc
00000170: 8bab c13b 950b 353c 6581 d7bc f276 acbc
00000180: a046 38bd 3f95 3d3d eea5 403c 66d1 253c
00000190: 9ad3 3c3d 8500 903c d750 443b 270a 06bd
000001a0: 91ee 96bc 4e54 04bd 6a5a c83b 3e90 c239
000001b0: cb3d 0ebd 1934 933c bcd8 433c 1180 d83b
000001c0: 7b3c 35bc 906c 1abc 2764 02bd a819 6a3b
000001d0: c303 88bc da00 5bbc 73a9 3b3d 1bce 123d
000001e0: 7e03 513d 35a5 f53c e0c4 b3bc b60a 043d
000001f0: 683e 13bc 16b9 183d 23d4 be39 361a adbc
00000200: 89db 0abd 0c19 7e3c ffa1 eebc 7ca1 b33b
00000210: a879 8abb 0dcf 11bd 5b58 393d 37d4 86bc
00000220: e9d6 293d 10a2 6fbc 55e1 ab3c fefc 3a3d
00000230: d98c 90bc 1ce6 f43c 0787 393d b8a7 08bc
00000240: a83a 5fbd c3ca 13b9 0474 b23c 0686 20bd
00000250: fcb8 4e3d 0afa 5ebc 2c69 c6bb ba9c dc3c
00000260: 7d42 04bd a2d2 8d3c 3d68 873b 9b9a 903c
00000270: e063 d6bc 5dea efbc e12f fdbc e1f7 40bd
00000280: 17cc 3b3d 58ac cabb b110 51bb 2cb9 c1bb
00000290: 9e31 eabc c96e 0fbd 6458 2bbd 049e 0d3d
000002a0: 1842 9bbc 9193 7f3c 8fc3 d43c 3ecf 413c
000002b0: a409 1c3b 45e6 193b 86ab bdbc 7964 403d
000002c0: 9138 0bbd 0054 293b c401 293d 49bd fc3a
000002d0: 8c08 d63c 4b16 413d f2b1 b6bc 92c4 8b3c
000002e0: 63bc 81bc dba4 a6bc 7624 e4bc 02af 1b3d
000002f0: c1e5 e5bb 32f1 463d 286d 5d3d 18d3 3c3c
00000300: 3bff 363d b442 943a 7acf f63c 8a04 91ba
00000310: 4d52 97bc ee10 18bd 781c d2bc 0e37 413b
00000320: 5307 523c f314 f63c 793b 533a 61ea 4f3b
00000330: 0b20 a33b 1034 e83c 850d 2bbc 1fdf 603d
00000340: c44a b7ba 0601 403a 46a1 673d 05c7 16bd
00000350: d5b6 243d 37c2 4a3d 5e19 fc3c 66bc e33c
00000360: 9bb2 28bb 324f a6bc aaad f63c ab5c a63c
00000370: 8065 093d 47bb e13c c1a8 a5bc 438c 093d
00000380: d383 a8bb d0be f1bc e7cf 1abc bad7 3abc
00000390: 94b8 b3bc 8e36 18bc 7aa2 15bd 72f5 1bbd
000003a0: 9273 f83c 2e35 bebc d222 ca3b 81c3 4dba
000003b0: eec9 f13c 67f9 333c 434c 73bb 5115 833c
000003c0: 7e65 abbc a6a5 473c c03b f1bc 5ff4 89bc
000003d0: e762 94bc 1bc8 aebc 502d f1bb 9d3f 803b
000003e0: 6160 9d3b ea85 adbc a1b4 6dbc c32b c8bc
000003f0: 7164 0c3d 6c1c c6bc 5da4 d7bb 6d0d d83c

net.3.bias f4 [256]
-0.024273457 -0.01686628 -0.022061778 0.020481236 0.029947285 0.017131602 -0.008011237 -0.0020810019
0.025891095 -0.023633001 0.019049866 -0.028506845 -0.040438056 0.027476352 -0.029473752 0.0007435354
0.009507372 -0.021645246 0.049682926 0.003924015 0.04503339 -0.003773653 0.049731486 0.028102063
0.00089388184 0.015009891 0.014579217 0.0031679473 0.04310208 -0.021725362 0.0041285856 0.001189441
-0.014405183 -0.004966687 -0.030770494 0.02565747 -0.015596852 -0.021003515 0.012647422 -0.04695499
-0.03342283 0.021827606 0.027795205 -0.006188546 0.020255191 -0.017834656 0.0222801 0.023657095
0.040416434 -0.02871343 -0.022208616 -0.029073993 -0.030390002 0.012481623 -0.029277064 0.021646505
-0.007298474 -0.0016669919 -0.02064478 -0.00235903 0.033208285 0.02913528 0.02028733 0.02086565
0.044094454 0.00073938165 0.033665895 -0.027046308 -0.0061292946 -0.009394761 0.0034519152 -0.0380307
-0.035444744 0.004304205 0.01969747 0.032634106 0.027271396 -0.027697897 0.013404889 0.017719941
0.017870465 0.01692401 -0.003482842 -0.025663588 0.03574861 0.0464867 -0.018889012 0.044264156
0.023036756 -0.019890029 -0.0155494055 -0.0024288953 0.050643533 -0.02695062 -0.0067660543 0.010796568
0.037578788 -0.0076208254 0.053236645 0.03938523 -0.018919654 -0.013332324 -0.0019291263 -0.020922842
-0.0010355454 0.032044742 0.0016150615 0.0046804138 0.0052369237 -0.024154814 -0.029999057 -0.03350144
0.019311288 0.029744342 0.0020698635 -0.019754058 0.040547352 0.004568201 0.022378836 0.00010009689
-0.00013731606 0.013039651 -0.02552891 -0.0007961467 -0.00026804782 0.0021869643 -0.016640065 0.010203038
-0.03020559 0.029490331 0.008305227 0.027646875 0.056560002 0.04502202 -0.015523129 0.026116906
0.007133265 -0.011409524 0.02230548 0.02271856 -0.021711467 0.0214622 0.0018887327 0.019454587
0.04006823 0.01018687 -0.0009494972 -0.01707515 -0.019290507 -0.03586693 0.014328794 -0.008392478
0.0020496333 0.04408571 -0.02212403 0.018949317 0.01743861 0.04596323 0.0057515157 0.03853808
-0.00808865 0.018185664 0.016429642 0.027282054 -0.011093699 0.025352355 -0.017369812 0.030758696
0.018072477 0.01994679 0.021451965 -0.0045956266 -0.0031999866 0.010885831 -0.020953516 0.012704463
-0.02228648 0.008189426 -0.0262315 0.0033329662 0.044846706 -0.026251407 -0.036124058 0.026672876
-0.008902859 0.049138524 -0.025765475 0.050692882 -0.024128048 0.034768924 -0.013358764 0.01668808
0.041429114 0.0034932008 0.014208971 0.019983204 0.015923224 -0.026671749 0.0462018 0.02188027
-0.005866185 -0.017530087 0.007417482 0.0034107275 0.042915355 0.032147545 -0.01103619 0.029932844
-0.012753686 0.03428198 0.051089756 0.039641343 0.0069766403 -0.03232831 -0.0075953803 0.016538555
0.025541846 -0.026600549 0.04720516 0.012887132 -0.0038958178 -0.012660762 -0.0005802121 -0.014136136
0.019734073 -0.013473629 0.03636365 0.004760066 -0.01953017 0.03844847 0.027544918 0.019807426
-0.025216019 0.040477645 0.011755041 0.033728957 0.0066987677 -0.025416192 -0.015664974 0.029927643
-0.011720518 0.030382067 0.005423431 -0.0040166783 0.046077285 -0.034203086 -0.007901551 -0.0039663166
-0.0049251043 -0.0057271933 0.015181365 0.04445224 -0.010777885 -0.0014452402 0.0052720574 0.04765512
00000000: 21d9 c6bc 272b 8abc e7ba b4bc 44c8 a73c
00000010: 0254 f53c 9357 8c3c 9041 03bc 6b61 08bb
00000020: 9019 d43c ff99 c1bc 770e 9c3c 3087 e9bc
00000030: 60a2 25bd 1616 e13c f072 f1bc d1e9 423a
00000040: cfc4 1b3c 5f51 b1bc 5380 4b3d 0695 803b
00000050: ef74 383d 644f 77bb 3eb3 4b3d 4c36 e63c
00000060: 6553 6a3a 0cec 753c abdd 6e3c 569d 4f3b
00000070: ce8b 303d 63f9 b1bc 1649 873b 04e7 9b3a
00000080: b703 6cbc 97bf a2bb 6712 fcbc 9d2f d23c
00000090: f089 7fbc 900f acbc 2237 4f3c e053 40bd
000000a0: 61e6 08bd cfcf b23c c5b2 e33c 49c9 cabb
000000b0: 37ee a53c fc19 92bc c284 b63c 86cc c13c
000000c0: b48b 253d 6d38 ebbc d8ee b5bc 952c eebc
000000d0: 74f4 f8bc b97f 4c3c 74d6 efbc 0354 b13c
000000e0: 0a28 efbb f77e daba 3e1f a9bc f599 1abb
000000f0: 6905 083d 1cad ee3c 9d31 a63c 71ee aa3c
00000100: 639c 343d 10d3 413a 40e5 093d 3890 ddbc
00000110: 40d8 c8bb 7cec 19bc 8739 623b 14c6 1bbd
00000120: 822e 11bd 4a0a 8d3b 975c a13c 57ab 053d
00000130: 4368 df3c b3e6 e2bc 2ea0 5b3c 6929 913c
00000140: 1565 923c 39a4 8a3c 6440 64bb 723c d2bc
00000150: 226d 123d d768 3e3d 21bd 9abc 554e 353d
00000160: 94b7 bc3c 6af0 a2bc efc2 7ebc 1a2e 1fbb
00000170: 986f 4f3d 8cc7 dcbc c7b5 ddbb 17e4 303c
00000180: 37ec 193d 1eb8 f9bb ab0e 5a3d 6852 213d
00000190: 64fd 9abc d26f 5abc bdda fcba 6166 abbc
000001a0: 23bb 87ba 5941 033d 79b0 d33a 285e 993b
000001b0: 809a ab3b 51e0 c5bc 95c0 f5bc ce38 09bd
000001c0: b532 9e3c 68aa f33c 8ca6 073b 43d3 a1bc
000001d0: fb14 263d d9b0 953b d253 b73c 1ceb d138
000001e0: 80fc 0fb9 43a4 553c 0122 d1bc 80b4 50ba
000001f0: c588 8cb9 2c53 0f3b bf50 88bc a52a 273c
00000200: b771 f7bc b595 f13c a612 083c b37b e23c
00000210: 76ab 673d 0269 383d b954 7ebc 1ff3 d53c
00000220: 2abe e93b 03ef 3abc fbb9 b63c 461c ba3c
00000230: 3fdc b1bc 7fd1 af3c 5a8f f73a 3a5f 9f3c
00000240: 961e 243d d4e6 263c aee7 78ba 2fe1 8bbc
00000250: 2007 9ebc 34e9 12bd 51c3 6a3c 9b80 09bc
00000260: 2453 063b 3893 343d 743d b5bc 993b 9b3c
00000270: 6adb 8e3c f143 3c3d 3677 bc3b 1bda 1d3d
00000280: 4286 04bc 1afa 943c 7597 863c 9d7e df3c
00000290: 59c2 35bc beaf cf3c 234b 8ebc a9f9 fb3c
000002a0: bb0c 943c 7367 a33c 08bc af3c e996 96bb
000002b0: deb6 51bb 7c5a 323c b5a6 abbc 6126 503c
000002c0: 2392 b6bc f12c 063c 71e3 d6bc e56d 5a3b
000002d0: 2eb1 373d 310d d7bc d2f6 13bd 1381 da3c
000002e0: 4cdd 11bc 7a45 493d 1e12 d3bc 57a3 4f3d
000002f0: 2fa8 c5bc dc69 0e3d b8de 5abc 71b5 883c
00000300: 93b1 293d 2fee 643b becc 683c d1b3 a33c
00000310: 6c71 823c b67e dabc 193e 3d3d 413e b33c
00000320: 2039 c0bb 429b 8fbc 590e f33b 8386 5f3b
00000330: 03c8 2f3d 25ad 033d 23d1 34bc b935 f53c
00000340: d6f4 50bc 436b 0c3d 7e43 513d f65e 223d
00000350: 4d9c e43b b16a 04bd abe2 f8bb dd7b 873c
00000360: 223d d13c 65e9 d9bc 335a 413d 8d24 533c
00000370: fa50 7fbb 166f 4fbc 6019 18ba 409b 67bc
00000380: 5aa9 a13c 7fc0 5cbc 0df2 143d 54fa 9b3b
00000390: bcfd 9fbc 257c 1d3d e1a5 e13c 2f43 a23c
000003a0: d391 cebc e3cb 253d 3798 403c 6027 0a3d
000003b0: 5681 db3b 9e35 d0bc d553 80bc d12a f53c
000003c0: 6a07 40bc d0e3 f83c 09b7 b13b 579e 83bb
000003d0: 89bb 3c3d 8918 0cbd 8275 01bc e0f7 81bb
000003e0: c562 a1bb 2eab bbbb 43bb 783c 8d13 363d
000003f0: ba95 30bc 376e bdba 39c1 ac3b 0432 433d

net.6.weight f4 [3, 256]
0.05580556 0.04002342 0.026876442 0.03068234 -0.05197973 0.033900864 0.025497558 -0.059716698
-0.070615366 -0.026432866 -0.051637672 -0.005810953 -0.05854828 0.0052744807 0.047228012 -0.031439446
-0.027192285 -0.077661596 -0.051508415 -0.048353165 -0.07665941 -0.08087331 0.0055845086 -0.04539989
-0.0075737853 -0.012859804 0.044170726 -0.007379983 0.07030803 -0.033663686 0.002041556 0.03997979
-0.056100994 -0.023744429 0.030997386 -0.075907655 0.02741488 0.07061854 -0.077034816 0.022006478
0.052026857 0.020177992 0.031288825 -0.037483532 0.031435642 0.0027966695 0.06324391 0.040250413
0.034050647 0.06771169 -0.0708458 0.05532044 -0.020390453 -0.06904356 0.0044218763 -0.061374255
0.045004115 -0.059500225 0.009037024 0.034530055 0.012521497 -0.031641047 -0.07912964 -0.033604946
0.005022628 0.02738124 0.009625846 -0.053397734 0.04054907 0.030948045 -0.02447165 0.050948795
-0.06596506 0.046641696 0.010371535 0.061807476 0.0060236887 -0.016423082 0.010103997 0.05975005
-0.046926107 0.0013434945 0.05697598 -0.003615994 0.018193342 -0.05624315 -0.023222726 0.06332636
0.0014802683 0.036239225 -0.005182927 -0.07437858 0.037507735 0.04622951 0.017203378 0.03783911
-0.048574843 0.07460852 -0.05631085 -0.073222235 -0.047974087 0.032263495 0.06553547 0.03935818
-0.056991618 0.0054964377 -0.06746589 0.034034397 0.024218077 -0.017999614 0.07696921 -0.037789933
-0.071896926 -0.02828636 -0.010473152 -0.027633341 0.048768975 -0.03353256 -0.052468672 0.05685365
-0.06260306 -0.084322825 0.05960391 -0.03334986 -0.073496595 0.06185618 0.046178658 -0.059734836
0.06383467 0.04242615 -0.061436918 0.0028432216 -0.08102582 -0.040924173 0.011267868 -0.061919384
0.053222634 0.005987696 -0.05336098 0.041606944 -0.040065452 -0.07554324 -0.038097117 -0.058386285
-0.08012628 -0.08371321 -0.03621985 0.0373965 0.023548823 0.07056997 -0.005619626 0.055725303
0.013970995 -0.008778503 -0.03089978 -0.07226729 -0.051737294 0.023975631 0.04566359 -0.051109392
-0.07305552 -0.060268242 0.0009709279 -0.007300669 -0.06627899 0.044942517 -0.029601688 0.012255141
-0.048740342 -0.049450126 0.064240694 -0.05150768 0.041775398 0.015127066 -0.0231017 -0.07422932
0.073900156 0.051021367 0.0068046595 -0.013064027 -0.05406015 0.0015397733 0.032122523 -0.079710186
0.057725623 -0.08424897 0.048727896 0.0067948904 0.047611836 0.029616911 -0.00025590908 0.047208637
0.014038954 0.011151442 -0.06775325 0.063727215 0.036564525 0.048313063 -0.026200982 0.05242834
0.035736006 -0.0060456176 -0.0025010898 0.0062090503 0.04619056 0.009565518 -0.028717339 -0.009481902
0.046241075 -0.018946296 -0.062259987 0.050752904 0.07198957 0.075448036 -0.07111776 -0.0053089727
0.061092734 -0.059751753 -0.002279098 -0.0683798 -0.03634539 -0.07526489 0.054738976 -0.06659667
-0.056983497 0.0036059509 0.033570565 0.045336004 -0.02215988 -0.052958265 -0.07140974 0.07467717
-0.051150482 -0.018267237 -0.0057833977 0.028819941 0.0046471925 -0.040727142 -0.06315951 0.009640372
0.050168656 -0.03180715 0.049627494 -0.021446446 -0.048803516 0.026403489 0.0018911132 -0.027078042
0.004659617 0.01630259 -0.035633195 0.030871905 0.021124683 -0.028812138 0.04337187 -0.012862949
00000000: 5f94 643d 99ef 233d fc2b dc3c 8859 fb3c
00000010: b3e8 54bd a2db 0a3d 41e0 d03c 7f99 74bd
00000020: ca9e 90bd bd89 d8bc 0682 53bd cf69 bebb
00000030: 52d0 6fbd 8dd5 ac3b 2972 413d a6c6 00bd
00000040: 5bc2 debc 0b0d 9fbd 7dfa 52bd f80d 46bd
00000050: 9cff 9cbd e8a0 a5bd 41fe b63b 3cf5 39bd
00000060: 842d f8bb edb1 52bc 5dec 343d c9d3 f1bb
00000070: a8fd 8f3d efe2 09bd a0cb 053b d9c1 233d
00000080: 28ca 65bd ad83 c2bc 3bee fd3c 7975 9bbd
00000090: 2c95 e03c 74a0 903d 6ec4 9dbd ee46 b43c
000000a0: 1d1a 553d 514c a53c b628 003d 5588 19bd
000000b0: a9c2 003d 5448 373b 0686 813d 9edd 243d
000000c0: b178 0b3d 6dac 8a3d 9a17 91bd b097 623d
000000d0: e109 a7bc b666 8dbd 63e5 903b 9263 7bbd
000000e0: 3c56 383d 82b6 73bd 0710 143c 636f 0d3d
000000f0: f726 4d3c 0b9a 01bd b80e a2bd 57a5 09bd
00000100: db94 a43b 9f4e e03c b9b5 1d3c 95b7 5abd
00000110: c816 263d c186 fd3c c578 c8bc afaf 503d
00000120: b018 87bd 5d0b 3f3d 5fed 293c d629 7d3d
00000130: 5d62 c53b b389 86bc 3c8b 253c 78bc 743d
00000140: 9735 40bd 3218 b03a a55f 693d 50fa 6cbb
00000150: 340a 953c 385f 66bd 963d bebc 40b1 813d
00000160: 9005 c23a 956f 143d 8bd5 a9bb cc53 98bd
00000170: b6a1 193d 285b 3d3d 19ee 8c3c 2ffd 1a3d
00000180: 6af6 46bd 5acc 983d 35a6 66bd 8af5 95bd
00000190: 7a80 44bd ba26 043d 7637 863d 0b36 213d
000001a0: 0b70 69bd 761b b43b 8e2b 8abd a767 0b3d
000001b0: fd64 c63c ed73 93bc 08a2 9d3d 9ec9 1abd
000001c0: b23e 93bd ccb8 e7bc 9597 2bbc 515f e2bc
000001d0: fac1 473d 7059 09bd 64e9 56bd 5fdf 683d
000001e0: 0836 80bd 72b1 acbd 3b23 743d dd99 08bd
000001f0: 6285 96bd e85c 7d3d d525 3d3d 84ac 74bd
00000200: c0bb 823d 0bc7 2d3d 47a5 7bbd 5855 3a3b
00000210: ddf0 a5bd 1ba0 27bd dd9c 383c 2e9f 7dbd
00000220: faff 593d 6f34 c43b 0b91 5abd 0b6c 2a3d
00000230: ac1b 24bd 6ab6 9abd b90b 1cbd 7526 6fbd
00000240: 3f19 a4bd d571 abbd 445b 14bd 132d 193d
00000250: 76e9 c03c fd86 903d d724 b8bb 3740 643d
00000260: 9ae6 643c b6d3 0fbc 8921 fdbc df00 94bd
00000270: 7cea 53bd 8b68 c43c bf09 3b3d 1558 51bd
00000280: 229e 95bd d5db 76bd de85 7e3a 733a efbb
00000290: 47bd 87bd a515 383d 3d7f f2bc c9c9 483c
000002a0: f4a3 47bd 378c 4abd a090 833d b8f9 52bd
000002b0: ae1c 2b3d 83d7 773c c73f bdbc 8b05 98bd
000002c0: f758 973d c8fb 503d 9ff9 de3b 800a 56bc
000002d0: 2d6e 5dbd 38d2 c93a e892 033d 183f a3bd
000002e0: b471 6c3d b98a acbd e796 473d aca7 de3b
000002f0: a104 433d 2a9f f23c 892b 86b9 d85d 413d
00000300: a403 663c 8ab4 363c 37c2 8abd 6a83 823d
00000310: afc4 153d ebe3 453d 71a3 d6bc 19bf 563d
00000320: eb5f 123d 511a c6bb 53e9 23bb 4a75 cb3b
00000330: 5032 3d3d b1b8 1c3c a040 ebbc fb59 1bbc
00000340: 4867 3d3d 4335 9bbc 5404 7fbd 47e2 4f3d
00000350: 456f 933d 8084 9a3d 30a6 91bd e4f6 adbb
00000360: 603c 7a3d 41be 74bd eb5c 15bb b50a 8cbd
00000370: e7de 14bd 7b24 9abd fa35 603d d663 88bd
00000380: 8767 69bd d151 6c3b 4a81 093d 3fb2 393d
00000390: a388 b5bc c4ea 58bd 453f 92bd 58f0 983d
000003a0: 2b83 51bd 2ca5 95bc a882 bdbb cc17 ec3c
000003b0: 7a47 983b 81d1 26bd c659 81bd a7f2 1d3c
000003c0: a67d 4d3d 3748 02bd 3346 4b3d 75b0 afbc
000003d0: 32e6 47bd 214c d83c 3bdf f73a c5d2 ddbc
000003e0: b3af 983b 028d 853c 1df4 11bd 14e7 fc3c
000003f0: ac0d ad3c 6f07 ecbc b4a6 313d 1ebf 52bc

net.6.bias f4 [3]
-0.0031233171 0.015522993 -0.0514852
00000000: 91b0 4cbb 2754 7e3c 25e2 52bd
